05 Deep Learning/data/mnist_weights2.npy (npy, 448 bytes, 1 tensors)

array f4 [8, 10]
00000000: 9e87 ae3f 5fdb 2bc0 cc17 a9bf b1c7 873c
00000010: 978b 3ac0 fedf 3f3f edc5 56c0 696e 2140
00000020: 79f0 ac3e c78a cabf 94f4 75bc 0633 9dbf
00000030: cff1 5d3f 57f3 c33f 48ed 2cc0 57de 953f
00000040: edfa 123f 186d 8cc0 2c91 d43f 14b7 07c0
00000050: 8635 6bbf 952f 17bf 061d b5bf 0f00 e23d
00000060: 44ea 523f 9653 503e b959 b0be 2ac7 0a3f
00000070: 5597 1abd c45f c03f f170 35c0 38dc 3c3f
00000080: d167 853e 4342 cebf f60f 973f 2a50 11c0
00000090: 2e2c fabf 7d1e 9a3f cde4 283f 8b2d cb3f
000000a0: 4c78 2240 e2b1 e03f 1e89 89bf 278b 02c0
000000b0: bda6 62bf b345 04c0 d99e e73f a6e1 16bf
000000c0: 15fc a7bf ad01 f2be c5b4 c23f 0ee5 82c0
000000d0: 4b19 973f c32f ebbf 7be4 ae3f 32e2 253f
000000e0: 93e0 b53f 9598 fdbf dcb4 afbf 78ef e9bf
000000f0: c93f 12c0 7f8b f03f 1c39 543f 2a73 05c0
00000100: 0a39 cdbf 1a10 9abf da97 e23f 9906 cebf
00000110: ba35 483f 590e 40c0 74d2 213e 2d64 b63f
00000120: 0d98 ff3f 22a7 0e40 7b11 4fc0 d6d4 03c0
00000130: f1f3 2cc0 0c08 5d3f fb7d 04c0 53ce 0cc0
1.3635137 -2.6852643 -1.3210387 0.016574712 -2.91477 0.7495116 -3.3558304 2.522364
0.33777216 -1.5823601 -0.015011925 -1.2281196 0.86697096 1.5308636 -2.7019825 1.1708478
0.5741413 -4.388317 1.6606803 -2.1205492 -0.91878545 -0.5905698 -1.4149482 0.110351674
0.8238871 0.20344386 -0.34443453 0.5421015 -0.037741978 1.5029225 -2.8350184 0.7377353
0.26055768 -1.6113971 1.1801746 -2.2705178 -1.9544733 1.2040554 0.6597412 1.5873274
2.5385923 1.7554286 -1.074497 -2.0397432 -0.8853567 -2.066754 1.8095351 -0.5893806
-1.3123804 -0.47266904 1.5211416 -4.090461 1.1804594 -1.8373951 1.3663477 0.6479827
1.420916 -1.9812189 -1.3727069 -1.8276205 -2.2851431 1.8792571 0.8289964 -2.085154
-1.6033032 -1.2036164 1.7702591 -1.6095763 0.7820698 -3.0008757 0.15802938 1.4249321
1.9968277 2.228951 -3.235442 -2.0598655 -2.702389 0.86340404 -2.0701892 -2.200093
