05 Deep Learning/data/mnist_weights1.npy (npy, 25216 bytes, 1 tensors)

array f4 [784, 8]
000000 f4 3d c1 3c 72 9e a9 3d c0 ee 39 3b 7a a7 78 bd
       0.023589112 0.08282174 0.0028371066 -0.060706593
000010 78 41 83 bc 98 e6 78 3c 36 bd 00 3d 97 6a 9b bd
       -0.016022429 0.015191697 0.031430446 -0.0758869
000020 14 d2 74 3d 58 d3 3c 3d 78 72 46 3c d4 63 ec 3c
       0.05977066 0.04609999 0.012112252 0.028856196
000030 82 aa 96 bd 76 a2 94 bd 9a 79 fc bc 70 c6 e6 3c
       -0.073567405 -0.072575495 -0.030819703 0.028170794
000040 ac 50 85 bc ac 8c af bc 70 55 58 3d aa e7 97 3d
       -0.016273819 -0.021429382 0.052815855 0.07417233
000050 bd 83 86 bd e0 3c ba bc 44 db 87 3d 4c 68 ab 3d
       -0.06568096 -0.022734106 0.066336185 0.083695024
000060 7e bf 93 3d 80 41 57 bc 78 b7 c3 bc 20 2a a7 bc
       0.072142586 -0.013138175 -0.023891196 -0.020405829
000070 fc 99 63 3d c2 8a 86 bd 8e de 82 3d fc bb b8 3c
       0.055566773 -0.06569435 0.06390105 0.022550575
000080 89 a9 41 bd 9a 6f db bc 80 27 5b 3b f3 30 68 bd
       -0.047280822 -0.026786614 0.0033440292 -0.056687307
000090 19 6e 3d bd 84 32 b0 3d c0 86 09 bd e8 50 31 3d
       -0.046247575 0.08603385 -0.033575773 0.04329005
0000a0 60 d0 98 bd 68 12 4b 3d 18 b9 9d bc ef fa 7a bd
       -0.074616194 0.0495781 -0.019253299 -0.061274465
0000b0 e8 0f b1 bd cc bf 68 3d 00 59 a6 3d d3 9f 80 bd
       -0.08645612 0.056823537 0.08122444 -0.06280484
0000c0 4e a6 2f bd 30 ec c7 bc b0 c4 b5 bb 5c 15 26 3d
       -0.04288321 -0.024404615 -0.0055471286 0.040547714
0000d0 54 9f b4 3c be 08 9c bd ec 6e 6d 3d 3f 49 65 bd
       0.02204863 -0.07618855 0.05796711 -0.055978056
0000e0 d8 a1 72 3d 80 d1 71 3b c4 0f 6a 3d 40 ea 07 bd
       0.059236377 0.0036898553 0.05714394 -0.033182383
0000f0 f0 82 8d bb 5c fe fd 3c e8 47 67 3d 60 b4 6c bb
       -0.0043185875 0.031005077 0.05646506 -0.0036118254
000100 73 05 58 bd a0 f1 51 3d fa 4d a9 bd f0 08 a1 bc
       -0.05273957 0.051255822 -0.08266826 -0.019657582
000110 94 83 f2 3c d0 77 ae 3b e8 68 60 3d c4 3c 4a 3d
       0.029603757 0.0053243414 0.054787546 0.049374357
000120 ac 7d 9e 3d 50 ea bb 3c 88 5b 65 3c e8 38 1c 3d
       0.07738814 0.022938877 0.0139988735 0.038140208
000130 74 22 83 bd ac a3 73 3d 68 cb 6a bd f8 b9 d4 3c
       -0.06403056 0.05948226 -0.05732289 0.025967583
000140 c6 db b1 3d ba 95 79 bd 18 c9 79 bc 8a c9 81 bd
       0.086844966 -0.060933806 -0.015245698 -0.06337269
000150 84 26 9b 3c da cf a6 bd 6c 46 84 bd 78 3e 6b 3d
       0.018939264 -0.08145113 -0.064587444 0.05743262
000160 80 a3 54 bd 05 3b 87 bd 76 ab a1 3d 84 37 74 bd
       -0.05191374 -0.06603054 0.07894032 -0.059623256
000170 6c ce af 3d a8 7c cb 3c 6a fd e3 bc 76 32 6c bd
       0.08584294 0.024839714 -0.027830798 -0.05766531
000180 3e dc 9f bd 1c 36 b2 3d 48 03 31 3c 5e 36 16 3d
       -0.0780568 0.08701727 0.010804005 0.036672942
000190 48 59 dd bd 77 c0 cd 3d 86 56 80 bd 98 50 d6 bc
       -0.10808045 0.100464754 -0.06266503 -0.026161477
0001a0 40 c8 91 bc 98 c1 59 bc d1 2a 36 bd db 26 36 bd
       -0.017795682 -0.013290785 -0.044474427 -0.04447065
0001b0 3c 84 da bd 0c 7a 51 bd 78 78 95 bd c1 c2 77 bd
       -0.10669753 -0.051141784 -0.07298368 -0.060488466
0001c0 cc 03 74 3d d0 e4 22 bc 2d 39 1f bd c2 23 a4 bd
       0.059573933 -0.009942248 -0.038872886 -0.08014633
0001d0 aa 9b 18 bc ac d2 d1 3c a8 24 45 3d 11 27 7d 3d
       -0.009314457 0.025613151 0.04813066 0.061804835
0001e0 ac f2 d7 3c f1 57 88 bd 8c bc b6 bc 74 2e 80 bd
       0.026360832 -0.066573985 -0.022306703 -0.0625886
0001f0 1a c7 4a bc ae 08 e2 bc 00 e6 ae bb 89 dc 9c 3d
       -0.012376571 -0.02759203 -0.0053374767 0.07659251
000200 b8 8a 56 bd 40 0c 49 3c b0 57 78 3c e8 7f f3 3c
       -0.052378386 0.012270987 0.015157625 0.029724076
000210 da 93 6a bd 64 95 59 3d b0 83 ae 3c f0 35 d9 3c
       -0.05726991 0.053120986 0.021303028 0.026514977
000220 40 1f 0c 3d 08 0f 34 3d 58 af 2a 3d 98 a0 16 bd
       0.03420949 0.043959647 0.041671127 -0.036774248
000230 b0 25 84 bc 8c 00 81 3d 18 73 33 3c b8 fa 36 3c
       -0.016131252 0.062989324 0.010952733 0.011168174
000240 67 f0 ad bd 70 62 39 3d cb 94 31 bd d5 fa 92 bd
       -0.08493119 0.045259893 -0.04335479 -0.07176749
000250 0d e8 95 bd 9f a3 59 bd 1d 9c a8 bd 70 1d f2 bc
       -0.07319651 -0.053134557 -0.08232901 -0.029555053
000260 56 2d 81 3d f8 81 5c 3d 40 bf 66 bc 78 cb 40 bc
       0.06307475 0.053834885 -0.0140836835 -0.011767261
000270 9c 25 96 bc cd 19 53 bd 9c fc 93 bd 2c 5d 19 3d
       -0.01832848 -0.051538277 -0.07225916 0.03744237
000280 00 5f e7 3a b4 46 82 3d 59 b3 82 bd 2c ee 58 3d
       0.0017652214 0.06361142 -0.06381864 0.052961513
000290 70 2a f9 3b 48 88 72 3c 76 20 19 bd d8 39 64 3d
       0.007603936 0.014803 -0.037384473 0.055719227
0002a0 86 f0 17 bd fc bb 85 bc 00 ac 8d 3d 30 70 af 3b
       -0.037094615 -0.01632499 0.06917572 0.00535395
0002b0 f0 4f 87 bc 60 69 e6 bb d0 4a 1f 3c d4 cd a4 3d
       -0.01651761 -0.0070316046 0.0097224265 0.08047071
0002c0 12 12 ad 3d 60 ab 5e 3c d8 34 2b 3c e4 7f ad 3d
       0.08450712 0.013590664 0.010449611 0.08471659
0002d0 ad 7a 99 bd 0c a0 65 3d c6 fd ae 3d 84 eb da bc
       -0.07494102 0.056060836 0.08544497 -0.02672363
0002e0 18 c8 92 bc 74 ae 93 3c 9b 06 59 bd 00 c5 b3 bc
       -0.017917678 0.018027522 -0.052984815 -0.021944523
0002f0 f8 14 10 bc c8 ad 67 3d 0e 09 b2 3d b2 fd 9f 3d
       -0.008794062 0.056562215 0.08693133 0.078120604
000300 7e 16 4b bd 12 d4 1a bd a8 ac d4 3c 46 4f 85 3d
       -0.049581997 -0.037799902 0.025961235 0.06509261
000310 50 1b 1e bc ec 5b 66 3d 84 83 9e bd a4 3e 93 bc
       -0.0096500665 0.056240007 -0.07739928 -0.017974205
000320 a9 c3 9d bd 60 a9 b8 3b 14 90 82 bc c4 ee 20 3d
       -0.07703335 0.0056354254 -0.015937842 0.039290205
000330 bc c6 af 3c d4 ba 5b 3d 66 d2 94 bd 30 2b 61 3d
       0.021457069 0.05364497 -0.07266693 0.054972827
000340 a9 9e 3b bd 60 49 92 3c 84 f0 3f 3d 40 eb b4 bb
       -0.045805607 0.017857254 0.046860233 -0.005521208
000350 b4 d9 69 3d c8 71 98 3d 6e 70 8c 3d f2 c2 14 3d
       0.057092384 0.07443577 0.06857382 0.036318727
000360 63 00 8e bd cc fe 11 3d c4 9d ec 3c 98 0e 81 3d
       -0.069336675 0.035643384 0.028883822 0.06301612
000370 30 ca 43 3d 48 ae 20 3c 02 f2 ab 3d 40 95 75 3b
       0.047800243 0.009807177 0.08395769 0.0037472993
000380 e0 9f bb bb 98 dd 90 3c 14 51 fc 3c 3c 5b 28 bd
       -0.0057258457 0.01768379 0.03080038 -0.041102633
000390 78 41 58 bc 70 a2 ca 3b 41 90 3b bd 60 ce 93 3b
       -0.013199203 0.006183915 -0.045791868 0.004510686
0003a0 58 7d 86 3c 64 a6 8c 3c b8 b6 25 3c 0c 6f 87 bc
       0.01641719 0.017169185 0.010114364 -0.016532443
0003b0 46 d3 0f bd 42 57 64 bd 18 0a 86 bc 87 0c 78 bd
       -0.035113595 -0.055747278 -0.016362235 -0.060558822
0003c0 ca 1b b0 3d f6 a2 15 3d 60 70 7e bb 82 e2 81 bd
       0.0859905 0.036532365 -0.0038824305 -0.06342031
0003d0 f0 1a 46 3d f0 4b 20 3d e0 02 3b bb 0e ee 95 bd
       0.048365533 0.03913492 -0.002853565 -0.07320796
0003e0 a4 1b 0d 3d e5 77 96 bd ac c9 89 bd fc 05 4d 3d
       0.03445019 -0.07347087 -0.06727919 0.050054535
0003f0 e4 08 3d 3d 61 ea 0d bd 4a c9 9f bd 28 2a 1c 3c
       0.046151057 -0.03464735 -0.07802065 0.009531535
